…
To enable the following instructions: SSE3 SSE4.1 SSE4.2 AVX AVX2 AVX512F AVX512_VNNI FMA, in other operations, rebuild TensorFlow with the appropriate compiler flags.
WARNING:tensorflow:TensorFlow GPU support is not available on native Windows for TensorFlow >= 2.11. Even if CUDA/cuDNN are installed, GPU will not be used. Please use WSL2 or the TensorFlow-DirectML plugin.

Building model...
Model: "sequential"
+--------------------------------------------------------------------------+
| Layer (type)                    | Output Shape           |       Param # |
|---------------------------------+------------------------+---------------|
| conv2d (Conv2D)                 | (None, 224, 224, 32)   |           896 |
|---------------------------------+------------------------+---------------|
| max_pooling2d (MaxPooling2D)    | (None, 112, 112, 32)   |             0 |
|---------------------------------+------------------------+---------------|
| batch_normalization             | (None, 112, 112, 32)   |           128 |
| (BatchNormalization)            |                        |               |
|---------------------------------+------------------------+---------------|
| conv2d_1 (Conv2D)               | (None, 112, 112, 64)   |        18,496 |
|---------------------------------+------------------------+---------------|
| max_pooling2d_1 (MaxPooling2D)  | (None, 56, 56, 64)     |             0 |
|---------------------------------+------------------------+---------------|
| batch_normalization_1           | (None, 56, 56, 64)     |           256 |
| (BatchNormalization)            |                        |               |
|---------------------------------+------------------------+---------------|
| conv2d_2 (Conv2D)               | (None, 56, 56, 128)    |        73,856 |
|---------------------------------+------------------------+---------------|
| max_pooling2d_2 (MaxPooling2D)  | (None, 28, 28, 128)    |             0 |
|---------------------------------+------------------------+---------------|
| batch_normalization_2           | (None, 28, 28, 128)    |           512 |
| (BatchNormalization)            |                        |               |
|---------------------------------+------------------------+---------------|
| flatten (Flatten)               | (None, 100352)         |             0 |
|---------------------------------+------------------------+---------------|
| dense (Dense)                   | (None, 256)            |    25,690,368 |
|---------------------------------+------------------------+---------------|
| dropout (Dropout)               | (None, 256)            |             0 |
|---------------------------------+------------------------+---------------|
| dense_1 (Dense)                 | (None, 1)              |           257 |
+--------------------------------------------------------------------------+
 Total params: 25,784,769 (98.36 MB)
 Trainable params: 25,784,321 (98.36 MB)
 Non-trainable params: 448 (1.75 KB)

Training model...
Epoch 1/50

[1m 1/12[0m [32m=[0m[37m===================[0m [1m29s[0m 3s/step - accuracy: 0.3125 - loss: 1.2407
[1m 2/12[0m [32m===[0m[37m=================[0m [1m5s[0m 501ms/step - accuracy: 0.4447 - loss: 1.0021
…
